assistments0910/dkt_model.ckpt (torch, 283871 bytes, 7 tensors)

interaction_emb.weight f4 [220, 30]
00000000: cbd0 fabf fb7f e33e 5eb2 74bf dd4c 903f
00000010: 4a33 e3bf 5dc5 9e3f 327f b3be 2e13 f23e
00000020: 6bcf 3d40 262f d83f ae6e 66bd 447d 9f3e
00000030: 4b69 09bf e3d9 e83e b22a fd3e 3f29 0abf
00000040: 6ff4 12bf b0cf d53f 589c 13c0 4f4d 93be
00000050: f001 20bf 1ce8 9f3e bbb0 17bf 7ef9 a3bf
00000060: 2c85 88be 6a29 92bd 05cc f93f c630 903d
00000070: 3c8c 91bd f2a0 c6bf 4818 713f c6ba 27bf
00000080: 7d87 dbbe e5c2 0c3f a1f7 90bf 1e3e a23e
00000090: 1d89 083f ce40 1dbf 127d 3e3f 22b1 5dbd
000000a0: d037 143f d288 053f dc8d c4bf 9e8d 953f
000000b0: 4594 87bf 9475 1abf c03f 543e fb21 093e
000000c0: f0ca 9f3f 06fd 533f 08e4 563f 5e84 58be
000000d0: 8814 04c0 f90f 03be c39a 97bf 9b4f 0440
000000e0: 3015 edbf 6205 933f f67f 9c3f ecd7 913f
000000f0: d026 bc3f 8ca7 34bf bfb3 1740 226b 8e3f
00000100: 610f 17be 44c5 2bbe 27ad 453f c4f2 f1bf
00000110: 0e39 dabe 5036 babf 5c48 43bf b53c b2bf
00000120: 3d16 24bf 78ee af3e 7775 a2bd cd80 2a3f
00000130: 96e5 c53e 7c5c 91bf c512 743f de3f 00bf
00000140: a134 a0be 4edf 16c0 f479 9f3e 718d 87bf
00000150: 1f8c 983f b861 60be a78f 623e c720 aebc
00000160: e6a8 8cbd 2188 733e 745a 2ebf 2742 3fbe
00000170: 85e0 c0bd 2ce6 fc3e c64a 89bf 14a1 9abe
00000180: 18f4 25bf d330 9f3f 85b3 4dbf 9331 533f
00000190: d329 473f 6098 073f 589e acbf c5ee 7dbf
000001a0: 4c83 bb3e 10be 313e 2cb6 8b3e 8bc3 1a3f
000001b0: a267 693d 4f83 c8bd e39a 8dbf 7fce 00bf
000001c0: 3a00 b23e 3d88 a1bf a997 0f3e 32e4 bebe
000001d0: 2c1d 8d3f 7fc3 3d3e 1a63 123f c15b 72bf
000001e0: fc99 c1bf 67f2 1abf 6f1f 8ebe e5be 3b3e
000001f0: c885 0f3e 38e4 d3bf 4a22 3e3f e8c4 de3f
00000200: 8ca8 463f 4837 ac3e 369c 1440 6377 a33f
00000210: c962 0b3e bbf4 74bf 2eaa 80bf 1ecc 983e
00000220: 2cc2 333d 228c 2cbf 5e93 d33d d9ce 76bf
00000230: f0c9 143f 8201 5dbc ddf3 8b3f e2a8 b1be
00000240: 71a2 103e 889a df3f b628 9cbf ffbe 193f
00000250: cf3f b73e 9546 82bc 3244 8b3f 3b95 813f
00000260: f84c 933f f7d2 923f 91bb a0bf d45b fabd
00000270: 5ea5 ebbd 48a8 993f 35bc 983e 5b19 803f
00000280: fb14 7d3f a62e 0a3e a352 9e3f a5c8 903f
00000290: 442d b03f b36f 493f 3637 ffbf 7039 f13e
000002a0: e596 9fbf 6e7e 13c0 58de e3be d429 933e
000002b0: 3cb4 2fbf 1120 9bbe 98ed bebf 89d1 a53f
000002c0: bb0b f7bf b2db 4ebf aaac 0a3f 637b 17bd
000002d0: 3841 533f e798 2f3d 0b5e b63e c030 29bf
000002e0: 84be d5bf 0497 02be 3841 64be dd73 7dbf
000002f0: 634d 233f 7a74 2c3e c09c 3abe a934 6fbf
00000300: 5a34 1fbe 39b9 43be b414 7abe 2bbc d6bf
00000310: b62e cf3d 6701 673f b88f c6be 406c 013f
00000320: 88aa 223e 68f5 4bbf 4f65 803f 901d 4f3e
00000330: cf15 933e 0d73 50bf 2661 593f 6440 c7bf
00000340: eab2 5c3f 3c89 20bf c487 a3bf 291a edbd
00000350: 35bf d83d 90ec b4bf 1bc6 2a3d 7498 563f
00000360: e27b b43f 9003 633f f173 b13f 8a7e 043e
00000370: 572d 9f3d 6e68 283e bbcc 3bbe e597 8fbf
00000380: 45da 8e3f 73ca 22bf 50af 273c ba09 483b
00000390: 00be dfbf 0c5f 93bf ee73 55bf 712c 91bf
000003a0: 6cd3 d3bf f82b 173f 35c6 a93f f9f8 b13f
000003b0: 6128 f8bd 45ab 9d3f be99 613e a01a afbf
000003c0: a782 0040 aefc 4b3e 7a28 42bf 47a0 39bf
000003d0: b9a1 1cc0 ece4 143f 36af a33f ea71 51be
000003e0: 414f c23d bd61 d8bf a12b c13f fca8 ab3e
000003f0: b133 3dbf feba 87be 9a7a 62bf a5b5 f23e
-1.9594969 0.4443358 -0.95584667 1.1273457 -1.7750027 1.240398 -0.3505798 0.47280258
2.9657848 1.6889389 -0.056257896 0.31150258 -0.5367629 0.45478734 0.49446636 -0.53969187
-0.57404226 1.6704006 -2.3064175 -0.2876992 -0.62502956 0.31231773 -0.59254044 -1.2810514
-0.26664102 -0.07136805 1.9515387 0.07040553 -0.07106826 -1.5517867 0.94177675 -0.6551937
-0.42876807 0.54984885 -1.132557 0.31688017 0.5333422 -0.6142701 0.7440959 -0.054124005
0.57897663 0.52161896 -1.5355792 1.1683843 -1.0592123 -0.6033566 0.20727444 0.13391869
1.2483807 0.8280796 0.839417 -0.21144244 -2.0637531 -0.12799062 -1.1844105 2.0673587
-1.8522091 1.1486018 1.222655 1.1394019 1.4699345 -0.70568156 2.3703458 1.1126444
-0.1475196 -0.1677447 0.77217335 -1.8902211 -0.42621654 -1.4547825 -0.76282287 -1.3924776
-0.6409643 0.34361625 -0.07932561 0.66602784 0.38651723 -1.1356349 0.9534114 -0.50097454
-0.31290153 -2.3573794 0.3114773 -1.059004 1.1917762 -0.21912277 0.22125112 -0.021255864
-0.06868152 0.23782398 -0.6810677 -0.18677579 -0.09417824 0.49394357 -1.0725944 -0.30201018
-0.6482558 1.2436775 -0.8035205 0.8249752 0.77798194 0.5296688 -1.3485823 -0.9919246
0.3662361 0.1735766 0.27287424 0.60454625 0.056983598 -0.0979067 -1.1062893 -0.5031509
0.34765798 -1.2619702 0.14022698 -0.37283474 1.1024528 0.18531607 0.57182467 -0.94671255
-1.5125117 -0.60526127 -0.27758357 0.18334539 0.14015877 -1.6554022 0.7427107 1.7403841
0.7760093 0.33635926 2.3220344 1.2770809 0.13611902 -0.9568593 -1.0051935 0.2984323
0.04388635 -0.67401326 0.103308424 -0.96409374 0.5812063 -0.013489129 1.0933796 -0.3469916
0.14124466 1.7469034 -1.2199924 0.6005706 0.3579087 -0.015902797 1.0880187 1.0123667
1.1507864 1.1470631 -1.2557241 -0.12224546 -0.11506151 1.200448 0.2983109 1.0007738
0.9886014 0.13494357 1.2368969 1.1311232 1.3763814 0.78686064 -1.9938724 0.47114134
-1.2467924 -2.3045917 -0.44505572 0.2874285 -0.6863439 -0.30297902 -1.4916258 1.295457
-1.9300455 -0.8080398 0.54169714 -0.036982905 0.8252139 0.04287043 0.35618624 -0.6609001
-1.6698766 -0.1275292 -0.22290504 -0.9900492 0.6378996 0.16841307 -0.18223858 -0.9343973
-0.15547314 -0.19113626 -0.2442196 -1.6776174 0.10116331 0.90236515 -0.38781524 0.505558
0.15885365 -0.79671335 1.0030917 0.20226121 0.28727576 -0.81425554 0.8491386 -1.5566525
0.862105 -0.62709403 -1.2775807 -0.11577255 0.10583345 -1.4134693 0.041692834 0.83826375
1.4100306 0.8867731 1.3863508 0.12938896 0.0777232 0.16446087 -0.18339817 -1.121823
1.116036 -0.63590163 0.010234669 0.0030523376 -1.7479858 -1.1513381 -0.8338002 -1.1341687
-1.6548896 0.59051466 1.3263613 1.3904105 -0.12117077 1.2317892 0.22031304 -1.368
2.0079744 0.19920608 -0.7584301 -0.7251019 -2.4473708 0.5816181 1.2787845 -0.20453611
0.09487773 -1.6904827 1.509144 0.33527362 -0.73907 -0.2650985 -0.88468325 0.4740421

lstm_layer.weight_ih_l0 f4 [400, 30]
00000000: 33f8 82be 70e3 79bc b790 dfbd e0dc fc3d
00000010: f8c2 863d 2c9f bb3c dd45 95bd 4801 423d
00000020: 1e31 c23d 86d3 573e 82f2 cb3d 4ec4 46bd
00000030: ee64 053e 85e3 953c 9e82 dfbb 8882 83bd
00000040: 358f c0bd f653 ee3c e8eb d5bd 680e 743d
00000050: a424 d5bd 0a8b 043e 9923 cebd 702c b6bd
00000060: c7df ee3d dfdc 083e aad7 20be 29cb b23d
00000070: cdc6 e33d 5206 063c 8f60 44bd c889 cbbd
00000080: b2ab 39be e646 083e f08e 983c 8762 41bd
00000090: 0e45 c4bd 0564 183e 8192 de3d 6f41 d0bd
000000a0: f313 aebd 8fc5 863e 434a d2bd ed18 5ebe
000000b0: c0ff 5c3e 28b5 043e 4d60 e5bc 11de 1b3e
000000c0: 00d1 26be e4ba 4f3e 4d7b a73d a66b b8bc
000000d0: a359 023e 1a78 5dbc 016f a13e ddea 513e
000000e0: bb56 543e eb2b b63d 6c3e d5bd 1467 f7bd
000000f0: 2683 babc 432b 673c 5b12 163e 3547 053d
00000100: 940c 33bd ec97 53bd 40a5 0c3e 9ab7 8e3e
00000110: 299a a93d 0285 cfbd 3047 a6bd 7c70 d2bd
00000120: cf87 963d 4a88 f63b 072e 83bd c069 503d
00000130: bf92 7d3d c63d 4cbe 613a 4ebc 3f5b 303e
00000140: b23b 793a 0043 823e aa0b 12be 7e28 ec3d
00000150: 98de 9f3d b142 0f3e cf9c ebbc 453a a4bd
00000160: 70a4 b73d 983d 1abe 160a 563e f641 a5be
00000170: 0871 063d 47e5 2fbe 867a 30be e6ce 51be
00000180: 86e6 f1bd 2f10 ad3c be33 0fbd 04c0 5abe
00000190: 7f95 453b bd4f 913d a671 9abe 68a4 d63c
000001a0: 8781 453d dfbb b0bc 2221 f23a 2274 f83d
000001b0: 30dd 893e 1201 9bbc e0dc a23e 0c9c 273c
000001c0: 8353 ec3d 0457 20be f588 a0bd 6f8a 973d
000001d0: f57b 4d3c 8bac 8c3e c786 0e3d bc52 36be
000001e0: ffcf 283d d7a3 c8bd ff67 abbd 0996 4b3e
000001f0: b5ae c03d 9679 8dbd ced0 edbd e870 26be
00000200: ccf8 d8bd 1746 b2be aa5e f8bd 0abe 293d
00000210: bc54 0c3e 3cae d3bd 6110 873d 67b9 37bd
00000220: 71be 2cbd 6ae5 49bd c62b 8dbd 5508 45bd
00000230: a3ff 503c 04b4 a03c cec3 973d 971b ad3d
00000240: 0f6c 1f3d 866e 463e f90e 563c a9fd 0bbe
00000250: 2066 dc3d 8f38 f0bd b104 aebd 1b8d 05bd
00000260: c5aa 3ebe 160b 0bbd 083b 303e 0229 b1bd
00000270: adb5 59be 30e1 b6bc 3f66 153d e9a4 c73d
00000280: e452 593e edb8 203e 02db 9a3e 8850 71bd
00000290: b50f f13d a3b1 1a3d 1a05 233d 27b7 623c
000002a0: 8e7d a63a c7ee c4bd a837 6c3e 7d94 983d
000002b0: 01e1 a2bd a16a 2cbd ebce bfbd f7c3 97bd
000002c0: abab 49be de2c 1a3e 8322 373d fa5a b4bd
000002d0: 1af3 113e a831 103d b51a a83b 26b2 2abc
000002e0: c6ce 9fbd 868e e43c ba39 48be 8ee8 85bd
000002f0: 74ad f03d d3f8 2d3e 8346 5dbe 345f 763d
00000300: 302d 64be 27b7 3b3e 5e1a 3abe fb2f 9a3b
00000310: 7bbd 0a3e dc03 333e d767 96bd 7cda 983d
00000320: 612b 113d cf49 37bc 8066 643e aeeb 5bbe
00000330: 2ed0 f1bd 84e6 07bd 2fdc f5bd 5ff1 0e3e
00000340: ed18 a93d de74 5dbd 0138 b5bd f446 3fbd
00000350: 107b 413e 49f8 29bd 8008 523e 93ff f6bc
00000360: bccc 77bc f7d7 97bc 7489 a53b 0f6d 0fbd
00000370: e691 cabd fe3a 753e 4c11 263e b087 4b3d
00000380: 7b93 e5bd d99b ce3d 7010 ad3d e600 c7bc
00000390: 90d6 043e 574d 92bd 8cb7 f9bd 13b4 533c
000003a0: d686 073e 48db ba3c fd6d 31bd b89d 0abc
000003b0: 2985 013e ae2c 413d e8e7 533e cdaf e83d
000003c0: 4b90 103e 5676 dabd 9f8a 03be 4c72 793d
000003d0: 9d6a 43bd b923 98be f19d 183b ffc3 27bd
000003e0: 827c 483e 115c 17be b90f 9e3d 57a4 f63d
000003f0: 9ac5 f33c b5e1 5fbe b137 52bd bd20 003e
-0.25579986 -0.015251979 -0.10916274 0.12346816 0.06580156 0.022903048 -0.07288716 0.047364503
0.094820246 0.21076784 0.09958364 -0.048527054 0.13026783 0.018296966 -0.0068209907 -0.06421381
-0.094023146 0.02909277 -0.10445386 0.05958405 -0.10407379 0.12943664 -0.100653835 -0.088951945
0.11663776 0.13365506 -0.1570727 0.08730156 0.111219026 0.008180218 -0.047943648 -0.09938389
-0.18131903 0.13308296 0.018622845 -0.047213104 -0.09583484 0.14881904 0.10867787 -0.101687305
-0.08499899 0.263226 -0.102680705 -0.21689196 0.21581936 0.1295973 -0.028000021 0.1522143
-0.16290665 0.20286137 0.08177815 -0.022512268 0.12729506 -0.013517404 0.31530002 0.2049975
0.2073621 0.088950954 -0.10412297 -0.120802075 -0.022767615 0.0141094355 0.1465544 0.03253861
-0.043713167 -0.051658556 0.13734913 0.27874452 0.08281357 -0.10132791 -0.08119047 -0.10275361
0.07350122 0.007523571 -0.064052634 0.0508821 0.061907526 -0.1994544 -0.012587161 0.17222308
0.00095074915 0.25441742 -0.14262262 0.11531161 0.07806128 0.13990285 -0.028761296 -0.080189265
0.08966911 -0.15062559 0.20902285 -0.32276887 0.03282264 -0.17177306 -0.17234239 -0.20489082
-0.11811547 0.021125881 -0.034961455 -0.2136231 0.003014892 0.07095287 -0.30164832 0.026201442
0.04821923 -0.021573959 0.0018473009 0.121315256 0.26926565 -0.018921409 0.3180914 0.010230076
0.11539366 -0.15658194 -0.078386225 0.07399451 0.012541761 0.2747539 0.034796502 -0.17804998
0.041213986 -0.09796875 -0.08369445 0.19881453 0.09408323 -0.06907956 -0.11612092 -0.16254008
-0.10594329 -0.348191 -0.12127431 0.041441 0.13704199 -0.10335967 0.06594921 -0.044854548
-0.042173807 -0.049291052 -0.06893115 -0.04810365 0.012756261 0.019617088 0.07410394 0.08452528
0.038921412 0.19378099 0.013065093 -0.13670982 0.10761666 -0.11729538 -0.084969886 -0.03260527
-0.18619831 -0.03394612 0.17210019 -0.086504 -0.2126071 -0.022324175 0.036474463 0.09748251
0.21223027 0.15695544 0.30245215 -0.05891469 0.11770574 0.037767064 0.039799787 0.013837612
0.0012702213 -0.09615856 0.23068106 0.07450197 -0.07953072 -0.042093877 -0.09365638 -0.07410424
-0.19694392 0.15056178 0.044710647 -0.08806415 0.14252892 0.035203606 0.005130137 -0.01041845
-0.07803111 0.027899992 -0.19553271 -0.06538497 0.117518336 0.1698945 -0.2160893 0.060149387
-0.22282863 0.18331586 -0.18174121 0.0047054267 0.13548844 0.17481941 -0.07344025 0.074635476
0.03544176 -0.011187031 0.22304726 -0.21476623 -0.11807285 -0.03317882 -0.12004887 0.13959263
0.08256707 -0.05406653 -0.088485725 -0.046698526 0.18894601 -0.04149655 0.20511055 -0.030151164
-0.015124496 -0.018535597 0.005051786 -0.035016116 -0.09891109 0.23948285 0.16217536 0.04968995
-0.1120977 0.10088319 0.08450401 -0.02429242 0.12972474 -0.07143658 -0.12193212 0.012921351
0.1323503 0.02280964 -0.043317784 -0.008460455 0.12648453 0.04716175 0.20693934 0.11361656
0.14117543 -0.10667102 -0.12845849 0.060900018 -0.047709096 -0.29714754 0.00232875 -0.0409584
0.19578746 -0.14781214 0.077178426 0.12043064 0.02975731 -0.21863444 -0.051322643 0.12512489

lstm_layer.weight_hh_l0 f4 [400, 100]
00000000: e3f3 d73c 8e7f 253e ae4c 073e 0843 923d
00000010: 715b 0d3e f844 a93d 81f2 72bc 272c a4bd
00000020: b8a5 4a3e 3698 803d d9b3 9fbd d89a 02bd
00000030: 9c40 373e cb2b b43d dff1 fd3d f4f2 f0bc
00000040: ad69 82be 2cba abbd e459 9d39 a8c9 093e
00000050: 13b3 dfbd c50e 903d 9731 34bd 2d99 a4bc
00000060: 6309 99be 0edd 053d 652b d3bd 407b 0cbe
00000070: 1e5b 36be 21ae 6cbc 8f2e 64be 75be 0abd
00000080: 9481 563d 5ccb 983d 46ff 9b3c 4e21 53bd
00000090: e15e 53be 4418 663e 1049 f5bd 9371 063c
000000a0: 1a2d 973c c3fb bebe 4bef 693d e7c8 3fbd
000000b0: abfc a93d 4aad 9ebc 6d2f 0dbd b8ae dabd
000000c0: c99b c03c b883 bbbd b530 b5bd b777 20bd
000000d0: caa9 ee3d aef1 d5bd 90e9 51bc ebc1 383e
000000e0: 947d 813d a48a f4bd ba80 fbbd d389 3bbe
000000f0: 2a35 68bc 1d32 eebd 3f4a f73d 55b5 5e3d
00000100: f6b1 d9bd 8fdf 69bd 704c 09bc bd9d 56bb
00000110: 639f 113d 240b 3ebd 5832 0f3d 0754 6d3a
00000120: b2e0 d7bd 4a6c 6e3e 670a d23c 2966 26bd
00000130: 1353 2f3e 6e69 cebd b46e 00bd 1efe 213c
00000140: c1ad 74bd a520 f3bd 9f01 343d 6eac ad3d
00000150: 4987 693d 7fad 883d d86f 06bc 2d99 2a3e
00000160: ad6e 473d f639 b6bd 5956 e73d c811 e0bd
00000170: 92f4 3ebe fdfd c43d 5560 4cbd 97a9 df3d
00000180: 1efc 33be d477 f03d 4366 d13d 9ca0 9a3d
00000190: 7db2 41be d20b 5c3d f068 5fbe 9363 ea3d
000001a0: 059c 263d 6f86 b23c 03a3 f03c 9601 0dbe
000001b0: d6d7 cc3d ee4e 8cbb 2a12 f33d 6064 ddbc
000001c0: 6991 553d 7a38 283d 1590 983d 3b6c ad3d
000001d0: bd87 8dbd 5b3a 2d3a 0855 9f3d 4d4d 87bd
000001e0: d51d 893d fc66 e9bd 027a 27bd 5e43 c0bd
000001f0: 0a3e 383d 3155 f83c b69e c63d 2eb5 a8bd
00000200: 01c1 9fbd 469e 12be fdb2 1fbe cb80 20bd
00000210: 1afc fabd 8b7b c93d 76c7 3d3d e506 aabd
00000220: 30ab d63d 0cc2 12be f647 853d cb30 de3c
00000230: bda4 f43d db12 fdbd 58dc 473d 4712 0bbe
00000240: 41c0 96bd 6a23 0f3e 2c1a 57bd 6fef c5bc
00000250: 0ef6 68be 2d26 4d3d ea30 00bc 5d4d 04be
00000260: 44cf c33d b66a c7bd 411b 7c3d 09e2 25bc
00000270: 900f 9ebb cf1f 27be 2870 20be a59c 8f3c
00000280: a8fe 7a3d b3f3 3cbc 0d44 d5ba 4633 f73c
00000290: 4902 953d b3f9 b6bd 53f4 003d 2333 9a3c
000002a0: ff55 893d 2fe0 7b3d c14a 31bd 5c0b 953d
000002b0: da6c adbd 9d19 923d 78c4 1a3d bc47 e6bd
000002c0: 947a 833e 1edf 9c3d 7de3 b83d fdeb 213d
000002d0: 9970 1ebd 25d5 bdbd 2630 3d3d 796e 9a3e
000002e0: 63cd cfbc 0add 2cbd b84a ebbd 73c7 073e
000002f0: e193 213e a056 25be f4b8 23bd a4f8 f53c
00000300: e453 a3bc 8592 d6bd 0dc5 26be c661 cdbd
00000310: 0764 28be d1a1 6c3d 2b50 e83c 96fd 7a3d
00000320: 307f d03c 97e9 fa3d 6094 77b6 03bc 15bd
00000330: f5ba 05bb eff7 3e3e 2b27 b7bc 3a41 163d
00000340: 51b1 513c 6ad7 cd3c fe44 e33d a5cc 323e
00000350: e030 663e f96a 203d cd73 6bbd 7ac0 75bd
00000360: 7f81 33be 16ad 6abd 3c47 05be 816e c53d
00000370: 236f a23c 94fe ae3d 86f0 6f3d d6df f63d
00000380: aabc 87bd c421 143b f24f 01bd 2116 3bbe
00000390: 07ce eabd 4380 163d bcd0 09be 0f4c 1abe
000003a0: 64bf 363e b407 023d ca90 10bc ea23 f93d
000003b0: a097 923d ccf9 10be 9310 26be fe45 67bd
000003c0: 42af ab3c 68df cfbd 0548 dc3c 1860 b8bd
000003d0: 20e2 093d dcd3 a9bd e042 a93b a6e8 eabd
000003e0: 4111 e13d 7155 823d 24c2 b3bc 4892 25bd
000003f0: 6667 7cbd 1e5a 17bd 679f 403d 48f5 133d
0.026361411 0.1616194 0.13212845 0.071416914 0.13804413 0.08265108 -0.014828325 -0.08016234
0.19789779 0.06279032 -0.07797975 -0.03188595 0.1789574 0.08797415 0.12399649 -0.029412724
-0.2547125 -0.08385119 0.00030012347 0.13455832 -0.109228276 0.07034067 -0.043992605 -0.020092571
-0.29889974 0.032681517 -0.10311011 -0.13718891 -0.17808196 -0.014445812 -0.22283386 -0.03387304
0.05236967 0.07460663 0.019042622 -0.051545434 -0.20641662 0.22470194 -0.11976826 0.008205789
0.018454123 -0.37301454 0.057112973 -0.046822455 0.08300146 -0.01936974 -0.034469057 -0.10677856
0.023511784 -0.09155983 -0.08847181 -0.03917667 0.116534784 -0.10446487 -0.012812033 0.18042724
0.0632278 -0.11940506 -0.12280412 -0.18314295 -0.014172832 -0.11630652 0.12074708 0.05437215
-0.106296465 -0.057097968 -0.0083800405 -0.0032747828 0.035552394 -0.046397343 0.03496012 0.00090533536
-0.10540904 0.23283496 0.025639726 -0.04062477 0.17121534 -0.10078703 -0.031355575 0.009887246
-0.059736017 -0.11871461 0.04394686 0.08480154 0.057013784 0.06673717 -0.008205377 0.16659994
0.048689533 -0.08897774 0.112957664 -0.109408915 -0.18647984 0.09618757 -0.049896557 0.109210186
-0.17576644 0.117416054 0.10224583 0.07550165 -0.18915744 0.05372221 -0.21817374 0.114447735
0.040676136 0.021792619 0.029374605 -0.13770136 0.10002105 -0.00428187 0.11868699 -0.027025402
0.052140627 0.041069485 0.074493565 0.08467909 -0.06910656 0.0006608122 0.0777989 -0.06606541
0.06695143 -0.11396596 -0.04088784 -0.09387849 0.04498104 0.03031406 0.096982405 -0.08237682
-0.078004844 -0.14318189 -0.15595622 -0.039185327 -0.12255116 0.09838017 0.0463328 -0.08302096
0.1048187 -0.14331836 0.06507866 0.027122876 0.11945484 -0.12357112 0.04879412 -0.13581191
-0.07360888 0.13978353 -0.052515194 -0.024162022 -0.22750112 0.050085235 -0.007824162 -0.12920137
0.09561017 -0.0973715 0.06154943 -0.010124692 -0.0048236325 -0.16320728 -0.15667784 0.017530749
0.061278015 -0.011532712 -0.0016270891 0.030175816 0.072758265 -0.08934345 0.031483006 0.018823212
0.067058556 0.061493095 -0.04328418 0.07277557 -0.084680274 0.071337916 0.037785023 -0.11244151
0.25679457 0.07659744 0.09027765 0.039531697 -0.0386816 -0.0926917 0.046188496 0.3016241
-0.02536649 -0.042202987 -0.11488861 0.13259678 0.15779068 -0.16146326 -0.039971307 0.030025788
-0.019937463 -0.10477165 -0.16286106 -0.100284144 -0.16444407 0.057771508 0.02835854 0.061276995
0.025451273 0.12251585 -3.6892234e-06 -0.036556255 -0.0020405625 0.18649267 -0.022357544 0.0366833
0.012798623 0.025127131 0.110971436 0.17460878 0.22479582 0.039164517 -0.057483483 -0.059998013
-0.17529868 -0.057293974 -0.13015455 0.096402176 0.019828385 0.08544651 0.05857899 0.12054412
-0.06627782 0.0022603134 -0.031570382 -0.1827016 -0.11465078 0.036743414 -0.13458532 -0.15068077
0.17846447 0.031745628 -0.008823583 0.12165053 0.071578264 -0.1415779 -0.1621726 -0.056463234
0.020957593 -0.10150033 0.02688981 -0.090027034 0.033662915 -0.08292362 0.005165443 -0.114701554
0.10989619 0.06363953 -0.02194316 -0.040422708 -0.061622046 -0.036951177 0.047027018 0.03612259

lstm_layer.bias_ih_l0 f4 [400]
00000000: 0da5 2d3d ee50 983d 549b 593d 23a3 323e
00000010: 71d8 233e 81e7 5b3e 7c9b 853e 206e 3c3e
00000020: 62b8 f83d 81f2 2b3e 36e0 c83d f114 7a3e
00000030: 2eeb 533e 2d0c 9a3e adb8 353e eec9 1c3e
00000040: 6416 8b3e 28ff a53e 9c99 8e3e 93b7 e13d
00000050: a13e be3c 37f8 c43e e123 103e bdc6 c53d
00000060: 1624 643e a25a b13e 83f6 fa3d bd86 7a3e
00000070: 5bb9 2c3e 75d7 163e 87b7 543e 8e67 c43d
00000080: e8a8 863e f240 2a3e 0725 033e 666f a23e
00000090: e036 9f3e 6bf9 873e 2aa3 763e adba 273e
000000a0: 3ba2 8e3e 579e 9d3e eba9 863e ac6f 3c3e
000000b0: 91dc 883e d254 1e3e 8e2f 583e d839 9f3d
000000c0: dd40 0e3e b3a2 043d 748a dd3e 9f60 333e
000000d0: f35f 713e e1fc a33e 4f20 533e b2b4 813e
000000e0: 01a1 243e 2828 333e c94a be3e 0054 7e3e
000000f0: 1c4e 433e 095b 733e 1fa6 ef3d a3d1 943e
00000100: f621 923e 2f76 c03c b5aa 783e 9f95 8b3e
00000110: 7dd6 023e d524 7e3e 8018 b93e 76a3 343e
00000120: ff20 563d 5ef0 863e a263 b63d 91ef fb3d
00000130: eef1 573e be10 853e 9ea7 593e bf61 753e
00000140: eba4 9e3e 6068 713e 8927 fb3d f07b 233e
00000150: a24d 943e 17ea 0b3e 9ec9 b73d 6ef6 ee3d
00000160: 160f 5d3e 1965 1c3e 48c3 433e 9aef 8d3d
00000170: 9284 2c3e d645 e63e 0b37 993e 50ea 0a3e
00000180: cc04 393e d8c5 be3e 3fb9 eb3e 5049 833e
00000190: 045d 193d ea0c c43d 9f78 423e 6fb2 b43d
000001a0: 08d0 0e3e 59a5 743b 47e9 fd3d 9211 c93d
000001b0: 6b25 36bd f1fe c13b a280 4f3b 4f3a 53bd
000001c0: f14f 3cbc f23a 0abd ef2b be3b 2b0b 793d
000001d0: 3bd6 0b3e e4d6 bcbb f862 b13d 4d8d bb3d
000001e0: df10 0c3e f4cd 8e3d 0f0b 433e 7a4e 4d3a
000001f0: d2f8 14bc 19bc ad3d 62b3 323e 9079 973d
00000200: aad9 9c3d f8cc fe3d 95fd 0d3e b042 4d3e
00000210: dade c43c 8a83 42bd 4cab dd3d 9266 033e
00000220: a8fd 12be ab1b 0d3e c561 40ba d461 313e
00000230: d1a8 4fbd 0faf 7b3d f67e 863d f942 213e
00000240: 64ab 75bc f510 c43d c357 f43d 00db 903d
00000250: 5974 d6bb 1fb8 373d 25f1 8339 b919 be3d
00000260: 7fd0 58bb dfd1 303d 24bb 82bc b8b2 a63d
00000270: f373 dd3d 156d 773d e2cc 803d b16d bf3c
00000280: 3ac2 8dbd 10c4 d0bd 3e1a a83d e851 f23d
00000290: 72ed 04be f8b1 0d3e c383 043d 2c94 363e
000002a0: bbc3 733d 6166 233d 6c15 f0bb 6d1b 823d
000002b0: 2223 dc3d b833 6abd f71e 9e3d 7964 8bbd
000002c0: dae9 90bd 3a31 4cbd ded3 4b3e 9e7e 9c3c
000002d0: f30e 463c e102 d7bb 21f5 fc3c 9d13 a03d
000002e0: 9e25 83bd c9ba 05bd 2705 033c 4d5d 333d
000002f0: 5a83 acbc fea5 e73d ae1a 113e 054d 3f3e
00000300: 28ef 01bd 1a09 91bc a85a c13d da58 883d
00000310: 08dd 88bd 86c5 f43c 62fd 36be eafe e63d
00000320: e8e8 dd3b 0e6b 6b3c 2b86 503c e2ad 873d
00000330: 9fc8 4fbe cc3d 64bd da8b 56bd ff6a 283e
00000340: 7769 a9bd 7d1e 253e 8f2b 14be 09e8 2c3d
00000350: 856b ddbc 9d8b 973d 85e3 0ebe e2d0 adbd
00000360: e799 45bd 75f4 aebc ee05 53be e44c 8f3d
00000370: aaa9 06be 061f 363e d67d 27be a99f d4bd
00000380: 92f9 78bd 44d9 44be f009 d7bc 93bb ae3d
00000390: 8fa4 c4bc e63a 16be e173 ddbd 96f5 5cbd
000003a0: 28f9 67bb dc25 d13c b6fd d4bc df32 82bb
000003b0: 3cc2 a83b 7704 a4bd 4623 f7bb 70a3 0d3d
000003c0: b75a 54bd b4dc 90bd c140 173e 7ef0 403d
000003d0: 2910 5cbd 5691 083d e71b 15be eaa3 00bd
000003e0: 1d3c bd3d 938e 733d 7f27 2f3e 41d7 1f3e
000003f0: 4bae 82bd bf67 0d3e 479f 163d e444 903d
0.042393733 0.07437311 0.053126648 0.17445044 0.16000535 0.2147503 0.26095188 0.18401384
0.12144543 0.16791727 0.0980839 0.24422051 0.20695183 0.30087414 0.1774623 0.15311405
0.2716552 0.3242123 0.2785157 0.11021342 0.023223223 0.38470623 0.14076187 0.09657047
0.2227939 0.3463946 0.1225405 0.24465461 0.16867582 0.14730628 0.20773135 0.09590064
0.2630074 0.16626337 0.12807094 0.31725615 0.31096554 0.26557478 0.2408568 0.16379805
0.27858147 0.30784866 0.26301512 0.18401974 0.2673078 0.15462044 0.2111189 0.07774705
0.13891931 0.032381725 0.43269694 0.17517327 0.23571758 0.3202887 0.20617794 0.25333172
0.16077043 0.17495787 0.37166432 0.24836731 0.19072765 0.23765196 0.11701607 0.2906619
0.28541535 0.023493854 0.2428387 0.2726259 0.12777133 0.24818738 0.36151505 0.1764048
0.05227756 0.2635526 0.08905722 0.12301553 0.21088383 0.25989336 0.21255347 0.23963068
0.30985197 0.23574972 0.122634 0.15965247 0.2896548 0.13663517 0.08974002 0.116680965
0.21587786 0.1527294 0.19117463 0.06930466 0.16847447 0.44975156 0.29924807 0.13565946
0.18068236 0.37260318 0.4603977 0.2564187 0.037442222 0.09572776 0.18991326 0.08823096
0.13946545 0.003733 0.1239801 0.098178044 -0.04446928 0.005920284 0.0031662364 -0.05156928
-0.011493669 -0.03374762 0.005803577 0.060801666 0.13655941 -0.0057629216 0.08661455 0.0915781
0.13678311 0.06972876 0.19047187 0.00078318233 -0.0090925265 0.084831424 0.17451242 0.07396233
0.076587036 0.124414384 0.13866265 0.2004497 0.024032045 -0.047488727 0.10823688 0.12832096
-0.14354575 0.13780086 -0.00073387875 0.17322475 -0.050698105 0.061446246 0.065671846 0.15748204
-0.014994476 0.09573547 0.11930802 0.07073021 -0.0065446314 0.044853326 0.00025165934 0.0928225
-0.0033083258 0.0431689 -0.015958376 0.08139557 0.10813131 0.060406763 0.06289078 0.023367735
-0.069218114 -0.10193646 0.0820813 0.118320286 -0.12981203 0.13837421 0.03235222 0.1782996
0.059512835 0.039892558 -0.0073267724 0.06352887 0.107488886 -0.05717823 0.0772075 -0.06806273
-0.07075854 -0.049851634 0.1990504 0.019103345 0.012088525 -0.0065616225 0.030878605 0.07816241
-0.06403659 -0.032648835 0.007996834 0.04379015 -0.021058727 0.11310957 0.14170334 0.18681724
-0.031722218 -0.017704535 0.094411194 0.06657572 -0.06682783 0.029879343 -0.17870095 0.1127909
0.0067721494 0.014368786 0.012727301 0.066249624 -0.20291375 -0.055722997 -0.052379467 0.16447066
-0.08272069 0.16124912 -0.14469741 0.042213473 -0.027028808 0.07399676 -0.1395398 -0.08487107
-0.048242476 -0.0213568 -0.20607731 0.069970876 -0.13150659 0.17785272 -0.16356596 -0.10382015
-0.060784884 -0.19223505 -0.026249856 0.08531871 -0.024004249 -0.14670905 -0.10813118 -0.053945147
-0.0035396311 0.025530748 -0.025999885 -0.0039733495 0.0051501077 -0.08008664 -0.0075420467 0.034579694
-0.051844325 -0.07073346 0.14770795 0.04710435 -0.05372635 0.03334173 -0.14561425 -0.03140632
0.09239981 0.05946214 0.1710491 0.15609457 -0.063809 0.13809107 0.036772992 0.0704439

lstm_layer.bias_hh_l0 f4 [400]
00000000: f411 093e a561 4c3d 0566 303e e432 543d
00000010: 7d2b 7d3e 9ed1 823e a2e6 903e 37cd 8b3e
00000020: ca03 7d3e 10d2 1d3e 1a91 fa3d 1706 0d3e
00000030: 2645 673e abf3 b23e ce9e 903e e0d9 153e
00000040: aecb 9f3e 2c48 b33e 4a82 9d3e d9f6 af3d
00000050: 5ced 8c3c df73 7b3e c0fe a03e 37ae b43d
00000060: cc09 853e 8ab3 833e b9cf 083e bbca 523e
00000070: 302c a33e f47a cd3d ed96 633d 2b5a 8dbd
00000080: 57a9 aa3e 8c5d 7c3e e915 833e 0d96 d63e
00000090: 92b8 823e 545c b93e e49c 8b3e 0b03 5a3e
000000a0: 206c db3e 85a0 a13e fdbd 863e 9e9b 433e
000000b0: 13f2 433e 1c3c 553e 185b 8a3e 5f18 193e
000000c0: f37b 053e f1e8 403e 8aea ce3e b14e 1b3e
000000d0: fc93 623d f6e9 b13e afe8 213e b5a3 203e
000000e0: b8c5 303e 2911 943e 66c5 5e3e f633 863e
000000f0: c1f8 633e 6be2 873e f31b 543e 45f1 773e
00000100: 5af4 d33e b503 0d3e 95ff 973e 6841 8f3e
00000110: d59e 1a3e 8d7c 8c3e d252 593e 6e02 253e
00000120: fc88 493e 3cfc 9d3e cb1b cc3c 385f 32ba
00000130: 2444 5a3e ef55 803e 9612 6e3e ef38 4c3e
00000140: 402b 993e db65 833e 7801 773e 5e62 3a3e
00000150: cdf1 143e 9612 513e a270 e43c 34f4 473e
00000160: f030 1a3e 4cd0 593e fb41 913e 1ad9 a23d
00000170: 0b49 973e 86bf a03e cbea 933e 3d03 5a3e
00000180: 4d34 803e f49b 5a3e b9d8 de3e 064f 203e
00000190: 4067 ac3d 67c1 2c3e 9629 223e eb12 e03d
000001a0: 8147 d1bc e623 f1bc 83b3 a23d 5ac7 3e3e
000001b0: c2df 013e 8962 013e 3258 55bc 6ae6 8c3c
000001c0: 2807 fc3d 6ef8 523d 642b 42bc 1af5 0a3e
000001d0: c773 1a3d 133c cdbc fd91 843d 6405 a53c
000001e0: 3f55 bdbc cec0 54bd 3310 803a b7e4 c03d
000001f0: c601 ff3d 090c b63d b9b9 293e f28d bf3d
00000200: 11eb 6d3d ae59 393d d190 0a3e 8cea 0a3e
00000210: 0ca5 b4bc b091 db3d 70c0 8d3d 2c87 b43d
00000220: 9b8f 0cbe aa8e b93d 1405 06bd 7aed 0c3e
00000230: aa6b e03d 19ca 873d 2e35 2b3e f909 913d
00000240: ec5a 223d 873b 2d3e 314e 733d c496 223e
00000250: 1be2 063d 48ce 9abb 7eeb 813c 5b8e 1f3e
00000260: 4bbb 1d3e 75c9 3c3d 4f6e dd3d 4d92 8dbc
00000270: 39d7 f33d 30ab af3d 5aac d4bd 035a e2bc
00000280: cc9f 843c b2c2 cfbc 5f2f dfbc 4255 d53b
00000290: c280 0ebe 8c24 2b3e 753a dabd b628 883d
000002a0: cfbb 51bd da3f 1bbc 0be0 133d c1f7 d83d
000002b0: 8861 5a3d 3f64 8bbd 4eb2 513d 8bae 3b3d
000002c0: 54b8 8dbd cf79 00bc 22d7 253e 4994 fd3c
000002d0: 9901 3ebb cbe7 1e3d 550a 023e 0e8b 38bd
000002e0: ff73 6ebd a3f7 3f3d b48f f73d 6c35 423e
000002f0: 479f 1d3e f35e 073e 457b 8f3b 295c 593e
00000300: b3c8 b4bd 9b73 24be ba52 e43c 3a52 463c
00000310: feac c3bd 2c07 2d3d 865c 6dbd c7b5 cfbc
00000320: 5ba2 79bd 1147 0abe 2445 a9bd d824 d03d
00000330: 2fc2 55be 8ec5 9c3c 51d7 cbbd 9b85 bd3d
00000340: edf7 843d c969 263e 8b44 06be a3af f43c
00000350: 5dcd 323c 9d62 3c3c 709d 98bd 11e3 943c
00000360: f18e fabc b727 603d 089e 46be f273 543d
00000370: 2060 18be 87be c93d 2a81 17be 3591 e4bd
00000380: f9da 95bd c922 01be 103d acba 91ee f53d
00000390: 6c4c 5e3c 56da b8bd db01 42bd 799c 80bd
000003a0: 20ba 07be 1011 743d bc00 a63c 2bc1 343d
000003b0: 2063 1fbd d3f3 7cbd b1e3 3ebc 1f61 233c
000003c0: 9b94 443d 13f0 303d eb91 583e 3022 bdbd
000003d0: 7bfe 0ebe e5e4 743c 89b6 5ebe 98cd d7bc
000003e0: dbc5 b73d 54f9 823d e254 0c3e e036 293e
000003f0: b779 63bd 95de ff3d b2dd cabd fe38 ca3d
0.13385755 0.04989781 0.17226417 0.051806346 0.2472362 0.2555055 0.2830096 0.27305004
0.24708477 0.15412164 0.12234707 0.13771854 0.22584972 0.3495153 0.28246158 0.14633894
0.31210083 0.35016 0.30763465 0.08592004 0.017203026 0.2455592 0.3144436 0.08822291
0.25984037 0.25722915 0.1336049 0.20585148 0.3186965 0.10033217 0.055563856 -0.06901964
0.3333232 0.2464506 0.25602654 0.41911355 0.2553144 0.36203253 0.27268136 0.21290223
0.4285593 0.3156778 0.26316825 0.19102332 0.19135313 0.20823711 0.27022624 0.14950703
0.13035564 0.1883886 0.40413314 0.15166737 0.05531691 0.3474881 0.15811418 0.1568745
0.17262924 0.28919342 0.21754989 0.26211518 0.22262861 0.2653993 0.20713787 0.24213131
0.41397363 0.13770945 0.2968718 0.27979589 0.15099652 0.27438775 0.21223 0.16114208
0.19681162 0.30856502 0.024915596 -0.000680435 0.21315056 0.25065562 0.23249277 0.19943593
0.2991581 0.25663647 0.24121654 0.18201587 0.14545365 0.20417246 0.027885739 0.1952675
0.1505773 0.21270865 0.28370652 0.07951565 0.29547915 0.3139612 0.2889007 0.21290298
0.25039902 0.21348554 0.4352472 0.15655145 0.08418131 0.16870652 0.15836176 0.10941108
-0.025546791 -0.029436063 0.079443954 0.18630734 0.12683013 0.12635244 -0.013021516 0.017199714
0.123060524 0.051506452 -0.011851165 0.13570061 0.03770807 -0.02505306 0.064731576 0.020144172
-0.023111938 -0.051941685 0.0009770453 0.09418624 0.1245151 0.08889014 0.16574754 0.09353246
0.058085505 0.04525154 0.13531806 0.13566035 -0.022051357 0.10721147 0.0692147 0.088148445
-0.13726656 0.09060414 -0.032719687 0.13762465 0.10958035 0.06630344 0.16719505 0.0708198
0.03963749 0.16917239 0.05940074 0.15877825 0.032930475 -0.0047242977 0.015859362 0.15581648
0.15403478 0.046090562 0.10812055 -0.017281676 0.11906285 0.08577573 -0.10384436 -0.027630812
0.016189478 -0.025361393 -0.027244268 0.0065104077 -0.13916305 0.1671316 -0.10655681 0.0664839
-0.0512045 -0.009475673 0.036102336 0.1059413 0.05331567 -0.0680623 0.051195435 0.045820754
-0.069199234 -0.007841541 0.16195348 0.030954497 -0.0028992651 0.038795274 0.12699254 -0.045054488
-0.05821609 0.046867024 0.12087956 0.18965691 0.1539279 0.13219814 0.0043787085 0.21226563
-0.08827343 -0.16059725 0.027871478 0.012104565 -0.0955448 0.042243168 -0.057949565 -0.025355233
-0.06094585 -0.13503672 -0.08265141 0.101632774 -0.20874856 0.01913717 -0.09953178 0.09253999
0.064926006 0.16251291 -0.13112085 0.029868906 0.01091322 0.011498121 -0.07451904 0.01817468
-0.030585738 0.054725375 -0.19396222 0.051868387 -0.14880419 0.09850793 -0.14795366 -0.111605085
-0.07317156 -0.12610926 -0.0013140757 0.120083936 0.013568025 -0.09026019 -0.04736505 -0.06279845
-0.13254595 0.059586585 0.020264022 0.04412953 -0.038912892 -0.061755966 -0.011650966 0.009971886
0.047993284 0.043197703 0.21149413 -0.092350364 -0.13964264 0.014947151 -0.21749319 -0.026343152
0.08973285 0.06395212 0.13704255 0.1652484 -0.055536 0.12493626 -0.09905566 0.09874152

out_layer.weight f4 [110, 100]
00000000: 4604 70be de39 e3bd 6a4c ffbd 0f2b abbd
00000010: d12d 1bbe 673c 1bbe eb60 4fbd 2189 5a3e
00000020: 35c4 f7bd 7fc5 c5bd cf0e 36be fa53 823b
00000030: f1b2 563e e045 8b3d 54c6 afbe 94e0 693d
00000040: b527 303e 0aa4 d63d 99b5 553e d769 f3bd
00000050: 62d8 69be ed5b 4fbc cdb8 ccbd 5f3c e33d
00000060: 1d28 043e 06a2 eb3d 802b 98bd 824c 0e3b
00000070: bb20 c13e 6ef8 1cbe 9ef7 1bbe 1fb3 0fbd
00000080: 38bf ca3b 601f 58be 9aaf 453e cebc b8be
00000090: e76b 363e f2e1 0abf f183 4e3a 87a9 313e
000000a0: 510a 203e 2873 88be b628 c3bd 7cba 6c3e
000000b0: fdcc f23d cf09 23bd 0cd9 c03c 5bf0 37be
000000c0: d291 8bbd 474f 04bd e9e1 663e 8137 693d
000000d0: 3461 d9bd 850f 01bd 26bd 093c 6a91 b23c
000000e0: f537 e83d b2ad b7bc 6db3 de3d 4d1a 0d3e
000000f0: b0b4 c9bd 1962 a7bc abfc 483d 4a58 07be
00000100: 84f3 a3be 34a4 353e cd36 883e c09f f3bd
00000110: 7152 c3be 3efb ae3e 9e48 683d b27c 74be
00000120: 7ad0 093e 8ae5 53be abce f6bd 2c30 913d
00000130: a10e 83bc 8782 88be b9a8 dabd 39a9 81bd
00000140: 44b6 3e3e 2eb6 9a3d 809f a5bd 349a 213e
00000150: aec8 adbd 85f6 093e b976 373c 41f3 d13c
00000160: 7f1c a63d abea 203e dd6c e4bc a54a cdbd
00000170: 5486 a23d 9a9e 27be 8e99 da3d b60e 98be
00000180: 3707 e4bc ad43 4e3e 243a 0dbf 2135 18be
00000190: f313 c1bd 97ab 5ebd 29c0 7b3d a3df 4cbd
000001a0: 3e2d 1fba f7ef 52be 78f6 16be 5922 8d3e
000001b0: fe3d 89bd fe17 943e 7521 80bd 9160 9a3d
000001c0: 37dd ecbd d645 91bd 23e1 7f3d e30d ba38
000001d0: 6f7c 303e 3c54 543e 552d 8dbe 92ab 3abd
000001e0: fab4 a3bd fe4c 3a3d 2669 90be c2d1 ac3d
000001f0: 68e0 9cbc ce1f 103e 05a1 64bd 9b7c df3b
00000200: b0ff 8b3d e7d5 36be c946 b63d 4703 033d
00000210: d3ca 103e 8363 3b3d c1c0 9d3d 0e63 1a3d
00000220: 6cff 213d f9c1 843c 9496 90bc 77d3 323e
00000230: 77c1 1cbe 860f 35be c8e9 20be f469 903e
00000240: 83d2 1e3e 9075 ecbd c630 4dbe 1ae4 21be
00000250: 744a cc3d 011e 80bd 38f2 a5be b4da 053e
00000260: 4726 afb9 b1e2 b7be b54a 02bd 998b d13a
00000270: 1121 233d d1c5 41be 3b1e 283d 7c79 36bd
00000280: 6450 2dbe cb85 6c3e 56f6 5d3e b8db 9cbd
00000290: 5b77 8bbe 5d5f 65bd bdf6 443e e519 133d
000002a0: c398 7cbe a25a 2bbe 8415 913e 9ce3 03be
000002b0: ce59 183e 8960 8d3e f469 9abb 1a9b 52be
000002c0: 1567 dabd d7af 903b a7cb 2dbd 6478 7f3e
000002d0: 2a63 ab3c 64a8 13bd c5bc 68bc cbfb 76bd
000002e0: 2970 e8ba 6f48 4a3e 1eb9 a93d 8bff f1bc
000002f0: 414f 443e 5f22 bf3d 5391 3abc cec2 40bc
00000300: 510f 80be 0653 c1be 353a dfbc 7094 55bd
00000310: e991 28be ee4d 743d 0554 75be db90 83be
00000320: c448 11be 7510 debd 9345 1cbe 0c66 c53d
00000330: 72b1 53be 0dd5 823e 737c 22be 68cd cf3d
00000340: b9a0 f3bd 118d 8cbb 062a 4abe ce5d 223e
00000350: f174 06be 6628 a1bc c006 87bc c289 8739
00000360: 1793 a13d 0ffb 393c 381e aa3d e68b 803d
00000370: 90ed 19be 94e5 3abc cb00 273d 5abb ae3d
00000380: 9689 27bd ba04 933d 90ce ef3d 8fa0 fdbd
00000390: d240 a3bd 1189 113e d3e7 c93d e2f3 50bd
000003a0: 649b 11bd 3d46 1f3e 3ff1 14be f7d4 7bbd
000003b0: 35aa 27bd c8a6 46bd ce4e cd3c a5d0 fbbd
000003c0: deee 35be 4a30 0b3e 3cbe 08be b7d7 76bd
000003d0: 7e3c 06bc 426b 153a f641 703e 7197 a23b
000003e0: a8b3 bbbd 7f5f fd3d 20ea 5c3d fbf2 efbc
000003f0: f04a b4bd 0a13 223e 03fd 0bbd 1b54 21be
-0.2343913 -0.11095022 -0.12465747 -0.08357822 -0.15154196 -0.1515976 -0.050629538 0.21341373
-0.120979704 -0.0965681 -0.17779087 0.003977296 0.20966698 0.06800437 -0.34331 0.05709894
0.17202647 0.10480507 0.20870055 -0.11885422 -0.2283645 -0.012656194 -0.099961855 0.11095499
0.12905927 0.11505513 -0.07430172 0.0021713083 0.37720284 -0.15329143 -0.15231177 -0.035082933
0.006187346 -0.21105719 0.19305268 -0.36081547 0.17814599 -0.54251015 0.0007877937 0.17349826
0.15628935 -0.26650357 -0.09529249 0.23118013 0.11855505 -0.039804276 0.023540996 -0.17962782
-0.068149224 -0.032302167 0.22547115 0.0569377 -0.10614243 -0.03150894 0.008406913 0.021797854
0.11338798 -0.022421692 0.108740665 0.13779564 -0.098489165 -0.020432519 0.049069088 -0.13217273
-0.32021725 0.1773842 0.2660431 -0.11895704 -0.38148835 0.34176058 0.05670988 -0.23875692
0.13458434 -0.20693031 -0.120511375 0.07089266 -0.015998187 -0.26662084 -0.106767125 -0.06331105
0.18624216 0.07554279 -0.08087063 0.1578148 -0.08485542 0.13472946 0.011197739 0.025628688
0.08110904 0.15714519 -0.027883941 -0.10024003 0.07935777 -0.16369095 0.106738195 -0.29698724
-0.027835472 0.20143004 -0.5516684 -0.14864017 -0.09427633 -0.05436286 0.061462555 -0.050017964
-0.000607211 -0.20599352 -0.14742458 0.27565268 -0.06701277 0.28924555 -0.062563814 0.0753795
-0.11565631 -0.07093398 0.062470566 8.871758e-05 0.17234968 0.20735258 -0.27573648 -0.04557378
-0.07993503 0.04548358 -0.28205222 0.08438446 -0.019149974 0.14074633 -0.055817623 0.006820274
0.06835878 -0.17855035 0.0890022 0.031985547 0.14139871 0.0457492 0.077027805 0.037692122
0.03955023 0.016205775 -0.017649926 0.1746348 -0.15308176 -0.17681703 -0.1571418 0.28205836
0.15509991 -0.11545861 -0.20038137 -0.1580967 0.09975138 -0.06255723 -0.3241136 0.1307171
-0.0003340712 -0.3591514 -0.031809527 0.0015987038 0.039826456 -0.18923117 0.041044455 -0.04454945
-0.16925198 0.23097913 0.21676001 -0.076590955 -0.27239498 -0.05599915 0.19234748 0.035913367
-0.24667649 -0.16733792 0.28336728 -0.12879795 0.14878008 0.27612713 -0.0047123376 -0.20566979
-0.106641926 0.004415493 -0.042430546 0.24948269 0.020921309 -0.03604926 -0.014205162 -0.060298722
-0.0017733622 0.19754194 0.082872614 -0.029540798 0.19170858 0.09332728 -0.011387187 -0.011765195
-0.25011685 -0.37758654 -0.027249435 -0.052143514 -0.1646191 0.059644632 -0.23957832 -0.25696453
-0.14187914 -0.10842983 -0.15260915 0.096386045 -0.20673159 0.2555317 -0.15867786 0.101466
-0.1189589 -0.0042892774 -0.19742593 0.15856096 -0.13130547 -0.019672584 -0.01648271 0.00025851844
0.07889383 0.011351361 0.08306545 0.062766835 -0.15032029 -0.011407275 0.04077224 0.08531828
-0.040902697 0.07178636 0.117093205 -0.1238414 -0.07971348 0.14212443 0.0985867 -0.051013835
-0.035548583 0.15554138 -0.14545153 -0.061482396 -0.040933806 -0.0484989 0.025061991 -0.12295655
-0.17766902 0.1359264 -0.13353819 -0.060264315 -0.008193133 0.00056998816 0.23462662 0.004961901
-0.09165126 0.1237173 0.053934216 -0.029290667 -0.08803356 0.15827575 -0.034176838 -0.1575474

out_layer.bias f4 [110]
00000000: 461d 003d 7a1c c53d c526 923d 29df f13d
00000010: 8622 803d 48d3 91bd 289f eebd d60c f23c
00000020: 22b3 1c3e dc64 b1bd 4124 f1bd f635 233d
00000030: 8352 5e3e 98e7 473d d907 063e a0d2 473d
00000040: 5819 53bd 5a70 c63d 1fbc 92bd baeb 84bd
00000050: ad65 283e 0a25 00be f1e8 653e bf55 9c3d
00000060: dacf 70bd ab45 293e 4091 553d d7c7 803d
00000070: 322e 293d bbaf a0bd d6f0 d5bc db67 10bb
00000080: 1ca4 fe3c 7e5b 0c3d e4d0 5b3d 4478 44bd
00000090: 2e27 7a3d 98fd e1bc 3d6b 2dbd f246 433d
000000a0: 8a3e 3b3e be02 dabb 1cc5 f53c 0740 aebd
000000b0: f408 83bd b291 8abc 9db2 093d 66b7 623d
000000c0: fc5c 82bd 2305 b93d 4924 733d 9b3b 843c
000000d0: 488d eb3d 98c7 01be 2145 a23d 0c50 333d
000000e0: e1cd f83d 1fc0 c2bb b170 7c3d 25e6 343d
000000f0: 8f00 9dbc 14bc 593e e549 353d 7f1a 85bd
00000100: 1dcd ab3d 366c e93c 2621 3fbd 9e03 253d
00000110: f7fc 9dbd 253e 573d 5049 eabc b491 be3d
00000120: 5b19 55bc 1372 553d 7f1c 8b3d 57b5 b03d
00000130: 880d 1fbe f52c 71bd 011f ffbb 7b73 96bd
00000140: 25b7 bebd 7fa1 bd3d 78cc a3bd b44d b8bd
00000150: 3594 a63d d6f6 b9bd 504c 813d 4d4d 973b
00000160: 6756 e43d 6a8e bb3d f8d5 d83c f771 d1bd
00000170: 5171 9cbd 9ebc a23d e220 913d d2de 503d
00000180: 8013 0f3b 473b 44be b939 02be 5f76 943b
00000190: 8222 903d 7239 0bbd fc4c 7abd 4313 383c
000001a0: 49da f0bd 73e8 893e 8142 603d 87eb 2ebe
000001b0: 5f38 7dbd be37 ed3c
0.031277917 0.09624572 0.07136301 0.118101425 0.06256585 -0.07120377 -0.116514504 0.029547136
0.15302709 -0.086618155 -0.11774493 0.039846383 0.21711163 0.04880485 0.13088931 0.048784852
-0.05153784 0.09689398 -0.071647875 -0.06490274 0.16445036 -0.1251413 0.22452141 0.07633542
-0.058791973 0.16530482 0.052140474 0.062881164 0.04130382 -0.07846018 -0.026115816 -0.002203456
0.031084113 0.03426694 0.05366601 -0.047966257 0.06107252 -0.027586743 -0.0423386 0.04767508
0.18285576 -0.006653159 0.030001216 -0.08508306 -0.06398192 -0.016915176 0.033617605 0.055350684
-0.063653916 0.09034183 0.059360776 0.016141703 0.11501557 -0.12673795 0.079233415 0.04377751
0.12148643 -0.005943313 0.06163091 0.044164795 -0.019165305 0.21263152 0.044259924 -0.06499194
0.08388732 0.028493982 -0.046662472 0.040286653 -0.07714265 0.0525495 -0.028599411 0.093051344
-0.0130065335 0.052110743 0.067925446 0.08628338 -0.15532506 -0.058880765 -0.0077856784 -0.07346245
-0.09312276 0.092593186 -0.07997984 -0.08999196 0.08133737 -0.09080283 0.063133836 0.0046173693
0.111492924 0.09158023 0.026469216 -0.10226815 -0.07638801 0.07946132 0.0708635 0.050993748
0.0021831691 -0.19163238 -0.12717332 0.0045307125 0.07037832 -0.03399033 -0.061108574 0.011235061
-0.117603846 0.26935157 0.054750923 -0.17082034 -0.061821338 0.028957244
